…
t_model.pth
Best threshold: 0.42 with F1 score: 0.9880

=== Final evaluation with best threshold ===
Confusion Matrix (threshold=0.42):
[[38  0]
 [ 1 41]]

Classification Report:
              precision    recall  f1-score   support

           0     0.9744    1.0000    0.9870        38
           1     1.0000    0.9762    0.9880        42

    accuracy                         0.9875        80
   macro avg     0.9872    0.9881    0.9875        80
weighted avg     0.9878    0.9875    0.9875        80

Confusion matrix saved to confusion_matrix.png

Model structure:
ClassifierModel(
  (embedding): Embedding(5058, 512)
  (attn): MultiheadAttention(
    (q_proj): Linear(in_features=512, out_features=512, bias=True)
    (k_proj): Linear(in_features=512, out_features=512, bias=True)
    (v_proj): Linear(in_features=512, out_features=512, bias=True)
    (out_proj): Linear(in_features=512, out_features=512, bias=True)
    (attn_dropout): Dropout(p=0.3, inplace=False)
    (resid_dropout): Dropout(p=0.3, inplace=False)
  )
  (fc_layers): Sequential(
    (0): Linear(in_features=512, out_features=128, bias=True)
    (3): Linear(in_features=128, out_features=2, bias=True)
    (3): Linear(in_features=128, out_features=2, bias=True)
    (3): Linear(in_features=128, out_features=2, bias=True)
    (3): Linear(in_features=128, out_features=2, bias=True)
  )
)